data.pth (torch, 5279 bytes, 6 tensors)

l1.weight f4 [8, 54]
0	0x3eff12cf	0.49819037
1	0x3f093e74	0.5361092
2	0xbeb27ded	-0.348617
3	0x3ecfc78c	0.4058193
4	0x3eb2126c	0.3477968
5	0xbf0e6a1c	-0.5563066
6	0xbe2f83c9	-0.17140116
7	0xbe506d60	-0.20354223
8	0xbe99fa40	-0.30073738
9	0xbd3d9be5	-0.04629125
10	0x3f132ce0	0.5749035
11	0xbd04578b	-0.03231005
12	0x3e897d83	0.2685357
13	0x3d0f8ba6	0.03504529
14	0x3ee1af3f	0.44079015
15	0xba8b9fa2	-0.0010652433
16	0x3ec13ba9	0.3774083
17	0xbf1dd471	-0.61652285
18	0x3ecbf957	0.3983867
19	0x3f1f0802	0.62121594
20	0x3e8fd2e4	0.28090584
21	0x3f141426	0.57843244
22	0x3f0bc679	0.5459972
23	0x3ed0ac02	0.40756232
24	0xbe4b780f	-0.19870017
25	0x3efb01a2	0.49024683
26	0x3ec58690	0.38579226
27	0x3ee466cb	0.44609675
28	0x3ebd7fd8	0.370116
29	0x3ebd52bc	0.36977184
30	0xbec38418	-0.38186717
31	0x3d17b220	0.037035108
32	0x3e52394c	0.2052967
33	0xbe876d86	-0.26450747
34	0x3f092b7c	0.53581977
35	0xbdb789ad	-0.089618064
36	0x3e92752d	0.28605023
37	0xbe8376b9	-0.25676516
38	0xbdc697f1	-0.09696949
39	0xbe1af5bd	-0.15132804
40	0xbea68e1b	-0.32530293
41	0x3ef9d5fe	0.48796076
42	0x3c0b5bcb	0.008505772
43	0x3e98dfe8	0.29858327
44	0xbdf8ed8c	-0.121546835
45	0x3eee0d6b	0.46494612
46	0x3f44fb09	0.7694555
47	0x3e9c3e27	0.30516168
48	0x3ed2c2dd	0.41164294
49	0x3ec279d5	0.37983575
50	0xbd467779	-0.04845378
51	0x3ee3356a	0.4437669
52	0xbd841ced	-0.0645083
53	0x3da36e96	0.07980077
54	0xbe09fa6b	-0.13474433
55	0xbe89b937	-0.2689912
56	0x3f0f1c2e	0.55902374
57	0x3cad021a	0.021119166
58	0x3f0e76b7	0.55649894
59	0x3d033bf5	0.0320396
60	0x3f273b1c	0.6532457
61	0x3f316d37	0.69307274
62	0x3f38f9af	0.72255987
63	0x3f118477	0.5684275
64	0x3e1910ff	0.1494789
65	0xbed44dd8	-0.4146564
66	0x3f15e4c9	0.58552223
67	0xbe62c6ee	-0.22146198
68	0xbda4951d	-0.080362536
69	0xbe83a2d3	-0.25710163
70	0x3ec10217	0.37696907
71	0xbd58b055	-0.05290254
72	0x3ed858c6	0.4225523
73	0x3ed79de9	0.42112663
74	0xbe37dd90	-0.17955613
75	0x3ef2341a	0.47305375
76	0x3ee75d29	0.45188263
77	0xbe702226	-0.23450527
78	0x3e812403	0.25222787
79	0x3d7a0ba5	0.06104626
80	0x3f2c0009	0.67187554
81	0xbe951535	-0.29117742
82	0x3e9f203b	0.31079277
83	0xbe1cfa44	-0.15329844
84	0xbe818b04	-0.25301373
85	0xbe442f98	-0.1915878
86	0xbdf340a6	-0.11877565
87	0x3f33beb9	0.70212895
88	0x3eca6366	0.3952896
89	0xbea8009f	-0.32812974
90	0x3ebe5f1a	0.37181932
91	0x3f17efa1	0.5935002
92	0x3f3ab630	0.72934246
93	0x3f481a11	0.78164774
94	0xbe14f9d3	-0.14548425
95	0x3efcce6c	0.49376237
96	0xbe0d67ac	-0.13809079
97	0x3d602d88	0.054730922
98	0x3e767e33	0.24071579
99	0x3ec02321	0.375268
100	0xbf2904fa	-0.6602322
101	0xbe6e21b4	-0.23255044
102	0x3ee0beca	0.4389556
103	0x3f0fb720	0.561388
104	0xbec41ccf	-0.3830323
105	0x3ef0ec4a	0.47055274
106	0x3f2e8b05	0.68180877
107	0x3f15c7e2	0.5850812
108	0x3e68dfb4	0.22741586
109	0x3f2f7747	0.6854138
110	0xbf017346	-0.5056652
111	0xbda17a8b	-0.07884701
112	0xbe35ba1a	-0.17746773
113	0x3eabe531	0.33573297
114	0xbea6043e	-0.32425112
115	0xbf129676	-0.57260835
116	0xbeb323d0	-0.3498826
117	0xbeedab6b	-0.46419844
118	0x3e5d2960	0.21597815
119	0x3f1cd639	0.6126438
120	0x3e9db192	0.30799538
121	0x3f2a9d1a	0.6664597
122	0x3f05000d	0.519532
123	0x3f127c02	0.5722047
124	0x3d96f2fd	0.07370565
125	0x3e772505	0.24135216
126	0x3eec40f2	0.461433
127	0xbd16ab1b	-0.036784273
128	0x3e5c70a3	0.21527342
129	0x3e4e41f3	0.20142345
130	0x3dd7c711	0.10536016
131	0x3ed10359	0.40822867
132	0x3e984a8d	0.29744378
133	0xbe883d67	-0.26609346
134	0x3f11ba6d	0.5692509
135	0x3f2a4cbd	0.66523343
136	0x3f05414e	0.5205277
137	0x3f27725f	0.6540889
138	0x3e0d336d	0.13789149
139	0x3f326708	0.69688463
140	0xbe4c4dd5	-0.19951566
141	0xbeded39d	-0.43520823
142	0x3f40dee1	0.75340086
143	0x3ede0884	0.43365872
144	0x3f026d94	0.5094845
145	0xbeb159ca	-0.34638816
146	0xbdc4cf84	-0.09609893
147	0xbe8fcaa6	-0.28084296
148	0x3e9846e4	0.29741585
149	0x3f035496	0.5130094
150	0x3eafbefd	0.343254
151	0x3f0cd7eb	0.55016965
152	0x3e02cc92	0.1277335
153	0x3f13f81d	0.57800466
154	0x3ec9d77a	0.39422208
155	0x3ea4defd	0.32201377
156	0x3ec1d0ea	0.378547
157	0x3f5614ac	0.8362529
158	0x3f029af8	0.51017714
159	0x3f1b901e	0.6076678
160	0xbeb0e5a2	-0.34550196
161	0x3dfff612	0.12498106
162	0x3f190483	0.5977251
163	0x3efc2a5a	0.49251062
164	0x3eca6284	0.39528286
165	0x3e684742	0.22683433
166	0x3ebb1c46	0.36545008
167	0xbef9c227	-0.4878094
168	0x3e745dfd	0.23863979
169	0x3f053d36	0.52046525
170	0x3ed6ef37	0.4197938
171	0x3ebb745c	0.36612213
172	0xbc610309	-0.013733634
173	0x3c3d0eee	0.011539204
174	0x3e912e9b	0.2835587
175	0x3e30ab53	0.17252855
176	0x3edb23ce	0.42800754
177	0xbe099c4a	-0.13438526
178	0x3e33a470	0.17543197
179	0xbef9a9ae	-0.48762268
180	0xbdad63d2	-0.08466305
181	0x3e8e0c0a	0.2774356
182	0x3ee59fde	0.4484853
183	0x3e1a62f6	0.15076813
184	0x3e846052	0.25854737
185	0x3d368260	0.04455793
186	0x3d61e6f5	0.0551519
187	0x3d335c78	0.043789357
188	0xbe38befc	-0.18041605
189	0x3eec2469	0.4612153
190	0x3e0158c6	0.1263152
191	0x3ea16de8	0.31529164
192	0xbf04241e	-0.5161761
193	0x3d9159ad	0.070971824
194	0x3e7e1f69	0.2481667
195	0x3f1ad689	0.60483605
196	0x3ed688a8	0.41901135
197	0xbdcb4200	-0.09924698
198	0x3dee4135	0.11633531
199	0x3ecd92ea	0.4015115
200	0x3e62abe1	0.22135879
201	0x3e93947e	0.28824228
202	0xbe9ead2f	-0.30991504
203	0xbec2f872	-0.38080174
204	0xbd3d41e1	-0.046205405
205	0x3e739b7b	0.2378978
206	0x3ea5c3b4	0.32375872
207	0x3f0755d2	0.52865326
208	0x3f817204	1.011292
209	0x3f05b333	0.5222656
210	0x3e41970e	0.18905279
211	0xbec542d5	-0.3852755
212	0xbd3276be	-0.043570273
213	0xbdf3253a	-0.11872335
214	0x3ed388d6	0.41315335
215	0x3ed06537	0.4070222
216	0xbe2f53ef	-0.17121862
217	0x3da4bc42	0.0804372
218	0xbea6c35a	-0.32570916
219	0x3e63311e	0.22186705
220	0x3d90d1c3	0.07071259
221	0x3f7cf390	0.98809147
222	0xbe8234a0	-0.25430775
223	0xbf19bfe0	-0.60058403
224	0xbeb6cd4d	-0.35703507
225	0xbed81592	-0.42203957
226	0x3e824007	0.25439474
227	0x3f10cddc	0.56564116
228	0xbdf61c6d	-0.120171405
229	0x3f0b2cbd	0.5436514
230	0x3e5653b4	0.20930368
231	0x3e9d3688	0.30705667
232	0x3e92fdbf	0.28709218
233	0x3f3c45d8	0.73544073
234	0xbb836bb5	-0.0040106424
235	0x3ef8987c	0.48553836
236	0xbea68352	-0.32522064
237	0x3ed2225b	0.41041836
238	0x3ee2353b	0.44181237
239	0x3f3b5b28	0.7318597
240	0x3d9a1201	0.07522965
241	0x3e9efc87	0.31052038
242	0xbdab6f67	-0.08370858
243	0x3e3cd320	0.18439913
244	0xbe4a4a81	-0.19754983
245	0x3eeeea0e	0.46662945
246	0x3f1c40c9	0.61036354
247	0x3f143a50	0.5790148
248	0x3e32029f	0.17383812
249	0xbeb64d4d	-0.3560585
250	0x3ddd2c03	0.1079941
251	0x3ecfce21	0.4058695
252	0xbe1fcf35	-0.15606387
253	0xbf03e913	-0.5152752
254	0xbe8d8495	-0.27640215
255	0xbe70619f	-0.2347474

l1.bias f4 [8]
0	0x3f369c30	0.71332073
1	0x3f0b75b5	0.5447648
2	0x3f3fc8b9	0.74915653
3	0x3ef9e333	0.48806152
4	0x3f5405e2	0.82821476
5	0x3f454069	0.7705141
6	0x3f54a3ca	0.8306242
7	0xbe19857a	-0.14992324

l2.weight f4 [8, 8]
0	0x3edbfc07	0.4296572
1	0x3e694369	0.22779621
2	0x3f8aa933	1.0832886
3	0xbf358e68	-0.7092042
4	0x3fd4d1df	1.6626548
5	0xbf1dd8a5	-0.616587
6	0x3f9c4cfc	1.2210994
7	0xbe3ac2fe	-0.18238446
8	0x3f732495	0.94977695
9	0x3f8c5d49	1.0965968
10	0xbf242d7d	-0.6413191
11	0x3fac9e28	1.3485765
12	0xbf164476	-0.58698213
13	0x3fab3294	1.337481
14	0x3ebc3cdc	0.36765182
15	0x3e2e9654	0.17049533
16	0xbe4f75a9	-0.20259728
17	0xbe4aaf9f	-0.19793557
18	0xbeb32c6c	-0.3499483
19	0xbeb974a5	-0.36221805
20	0x3e3ba602	0.18325046
21	0xbe79e873	-0.24405079
22	0x3e6a15cd	0.22859879
23	0x3e72620a	0.23670211
24	0x3f18f7d1	0.5975314
25	0x3f66e8c8	0.90198946
26	0x3f451315	0.7698224
27	0x3f23a1d6	0.6391882
28	0xbf3f4760	-0.74718285
29	0xbf97a2f2	-1.1846602
30	0x3e01a610	0.12661004
31	0x3e8fbf91	0.2807584
32	0x3e90b96d	0.2826647
33	0x3f70c89e	0.9405612
34	0xbec6dd29	-0.38840607
35	0xbe3178b8	-0.17331207
36	0x3efc6c15	0.4930121
37	0x3f818eac	1.0121665
38	0x3f9a737e	1.2066495
39	0xbe2fa530	-0.17152858
40	0x3dc13359	0.09433622
41	0xbf8465c8	-1.0343561
42	0x3f7c7acc	0.98624873
43	0x3f509941	0.81483847
44	0x3f8c24bc	1.094871
45	0xbe2c3cfd	-0.1682014
46	0xbedcfe78	-0.43162894
47	0x3e5cf056	0.21576056
48	0x3fa970e5	1.3237578
49	0xbf8a4a76	-1.0803974
50	0x3f71b3a0	0.9441471
51	0x3f87c19a	1.0605958
52	0xbdd34615	-0.103161015
53	0x3faeac1f	1.3646277
54	0xbf16f1ea	-0.5896288
55	0x3e8187a0	0.25298786
56	0xbe3d2a57	-0.18473183
57	0xbea633e7	-0.32461473
58	0xbea0a4d8	-0.31375766
59	0x3e1c952e	0.15291283
60	0xbe9471f8	-0.289932
61	0x3db23755	0.0870196
62	0x3e2d5ff7	0.16931139
63	0xbe85fb0b	-0.26168093

l2.bias f4 [8]
0	0x3e33f8cb	0.17575376
1	0x3f05633b	0.5210454
2	0xbde23cff	-0.1104679
3	0xbe0177bb	-0.1264333
4	0x3ee99cd4	0.45627463
5	0x3f0ed4d0	0.55793476
6	0x3e7502a8	0.23926795
7	0xbd2b3e8a	-0.04180769

l3.weight f4 [7, 8]
0	0x3e83e98d	0.25764123
1	0xbf9ca27b	-1.2237085
2	0x3e070140	0.1318407
3	0xbf9226e7	-1.1418122
4	0xbf622d14	-0.88350034
5	0x3f216687	0.6304707
6	0x3ebabf93	0.36474285
7	0xbe5fab5b	-0.2184271
8	0xbea9bc8c	-0.33151662
9	0xbe1cfc13	-0.15330534
10	0xbe81a02c	-0.25317514
11	0x3f542135	0.8286317
12	0xbf8eb48d	-1.114885
13	0x3e8024c6	0.25028056
14	0x3ec67126	0.387582
15	0xbe8e0eae	-0.27745575
16	0x3f54cf60	0.8312893
17	0xbef78fd6	-0.48351926
18	0xbb92be01	-0.0044782166
19	0xbf6491af	-0.89284796
20	0x3e7f9dc2	0.24962524
21	0x3eb8b7a9	0.36077622
22	0xbfe9a12f	-1.8252314
23	0x3e5d601a	0.21618691
24	0x3e0e5a0b	0.13901536
25	0x3ed71393	0.4200712
26	0x3e3756c7	0.17904197
27	0xbf9e104e	-1.2348726
28	0x3edd39ec	0.43208253
29	0xbf6b847f	-0.9199905
30	0x3e3690de	0.178287
31	0xbe9c5524	-0.30533707
32	0x3ec19bfd	0.37814322
33	0xbe022058	-0.1270765
34	0x3d85a5a4	0.06525734
35	0x3f744b32	0.9542724
36	0xbcdf2c43	-0.027242785
37	0xbf7ec280	-0.99515533
38	0xbf481c32	-0.7816802
39	0xbea64543	-0.32474717
40	0xbfb9dc4f	-1.4520358
41	0x3f57ab7d	0.84246045
42	0xbea1a682	-0.31572348
43	0x3e99e0b9	0.30054262
44	0x3eea5103	0.45764932
45	0xbfb022e6	-1.376065
46	0xbf29f4e2	-0.66389287
47	0xbe5ba699	-0.2145027
48	0xbfd8f1cb	-1.6948789
49	0x3ed2d775	0.41180006
50	0xbcbaebcd	-0.022817517
51	0xbeb9cf58	-0.36291003
52	0xbe7ab15e	-0.24481723
53	0x3dc63ca7	0.09679537
54	0x3f511ca3	0.8168432
55	0xbd055459	-0.032551143

l3.bias f4 [7]
0	0xbc827856	-0.015926521
1	0xbe311967	-0.17294846
2	0x3f126081	0.57178503
3	0x3dba4c93	0.090966366
4	0xbed7430a	-0.42043334
5	0x3e3f7d31	0.187001
6	0x3cb0108f	0.02149227
